model_01/model_01.pkl (torch, 1909 bytes, 2 tensors)

weight f4 [4, 1, 4]
00000000: 5979 1f3f 7b05 c43e 91f2 a4bd 86bd f93e
00000010: 729d 833d a5b3 863f bfc0 9d3e 0b5f 4c3e
00000020: 4241 2cc0 84a3 01c0 4b44 c9bf 5701 09c0
00000030: 5beb f5bf 12d7 d9bf d023 d6bf 9f31 a9bf
0.62294537 0.3828543 -0.08054078 0.48777407 0.06426515 1.0523573 0.30811116 0.19958131
-2.691483 -2.0256052 -1.5723966 -2.1407068 -1.921245 -1.7018759 -1.6729679 -1.3218268

bias f4 [4]
00000000: c05e 483e 4939 053e 2048 e8bf 1f65 c3bf
0.19567394 0.13010134 -1.8147011 -1.5265235
